goat_shape_state_estimation/models/latest.pt (torch, 105646 bytes, 17 tensors)

input_mean f4 [21]
0	0x00000000	0.0
1	0x00000000	0.0
2	0x00000000	0.0
3	0x00000000	0.0
4	0x00000000	0.0
5	0x00000000	0.0
6	0x00000000	0.0
7	0x00000000	0.0
8	0xc1200000	-10.0
9	0x00000000	0.0
10	0x00000000	0.0
11	0x00000000	0.0
12	0x00000000	0.0
13	0x00000000	0.0
14	0x00000000	0.0
15	0x00000000	0.0
16	0x00000000	0.0
17	0x00000000	0.0
18	0x00000000	0.0
19	0x40200000	2.5
20	0x40200000	2.5

input_std f4 [21]
0	0x3f800000	1.0
1	0x3f800000	1.0
2	0x3f800000	1.0
3	0x40400000	3.0
4	0x40400000	3.0
5	0x40400000	3.0
6	0x40e00000	7.0
7	0x40e00000	7.0
8	0x40e00000	7.0
9	0x420c0000	35.0
10	0x420c0000	35.0
11	0x420c0000	35.0
12	0x420c0000	35.0
13	0x420c0000	35.0
14	0x420c0000	35.0
15	0x3f000000	0.5
16	0x3f000000	0.5
17	0x3f000000	0.5
18	0x3f000000	0.5
19	0x3f800000	1.0
20	0x3f800000	1.0

output_mean f4 [45]
0	0x00000000	0.0
1	0x00000000	0.0
2	0x00000000	0.0
3	0x00000000	0.0
4	0x00000000	0.0
5	0x00000000	0.0
6	0x00000000	0.0
7	0x00000000	0.0
8	0x00000000	0.0
9	0x00000000	0.0
10	0x00000000	0.0
11	0x00000000	0.0
12	0x00000000	0.0
13	0x00000000	0.0
14	0x00000000	0.0
15	0x00000000	0.0
16	0x00000000	0.0
17	0x00000000	0.0
18	0x00000000	0.0
19	0x00000000	0.0
20	0x00000000	0.0
21	0x00000000	0.0
22	0x00000000	0.0
23	0x00000000	0.0
24	0x00000000	0.0
25	0x00000000	0.0
26	0x00000000	0.0
27	0x00000000	0.0
28	0x00000000	0.0
29	0x00000000	0.0
30	0x00000000	0.0
31	0x00000000	0.0
32	0x00000000	0.0
33	0x00000000	0.0
34	0x00000000	0.0
35	0x00000000	0.0
36	0x00000000	0.0
37	0x00000000	0.0
38	0x00000000	0.0
39	0x00000000	0.0
40	0x00000000	0.0
41	0x00000000	0.0
42	0x00000000	0.0
43	0x00000000	0.0
44	0x00000000	0.0

output_std f4 [45]
0	0x3f000000	0.5
1	0x3f000000	0.5
2	0x3f000000	0.5
3	0x3f000000	0.5
4	0x3f000000	0.5
5	0x3f000000	0.5
6	0x3f000000	0.5
7	0x3f000000	0.5
8	0x3f000000	0.5
9	0x3f000000	0.5
10	0x3f000000	0.5
11	0x3f000000	0.5
12	0x3f000000	0.5
13	0x3f000000	0.5
14	0x3f000000	0.5
15	0x3f000000	0.5
16	0x3f000000	0.5
17	0x3f000000	0.5
18	0x3f000000	0.5
19	0x3f000000	0.5
20	0x3f000000	0.5
21	0x3f000000	0.5
22	0x3f000000	0.5
23	0x3f000000	0.5
24	0x3f000000	0.5
25	0x3f000000	0.5
26	0x3f000000	0.5
27	0x3f000000	0.5
28	0x3f000000	0.5
29	0x3f000000	0.5
30	0x3f000000	0.5
31	0x3f000000	0.5
32	0x3f000000	0.5
33	0x3f000000	0.5
34	0x3f000000	0.5
35	0x3f000000	0.5
36	0x3f800000	1.0
37	0x3f800000	1.0
38	0x3f800000	1.0
39	0x3e99999a	0.3
40	0x3e99999a	0.3
41	0x3e99999a	0.3
42	0x3f800000	1.0
43	0x3f800000	1.0
44	0x3f800000	1.0

h0 f4 [1, 1, 64]
0	0x00000000	0.0
1	0x00000000	0.0
2	0x00000000	0.0
3	0x00000000	0.0
4	0x00000000	0.0
5	0x00000000	0.0
6	0x00000000	0.0
7	0x00000000	0.0
8	0x00000000	0.0
9	0x00000000	0.0
10	0x00000000	0.0
11	0x00000000	0.0
12	0x00000000	0.0
13	0x00000000	0.0
14	0x00000000	0.0
15	0x00000000	0.0
16	0x00000000	0.0
17	0x00000000	0.0
18	0x00000000	0.0
19	0x00000000	0.0
20	0x00000000	0.0
21	0x00000000	0.0
22	0x00000000	0.0
23	0x00000000	0.0
24	0x00000000	0.0
25	0x00000000	0.0
26	0x00000000	0.0
27	0x00000000	0.0
28	0x00000000	0.0
29	0x00000000	0.0
30	0x00000000	0.0
31	0x00000000	0.0
32	0x00000000	0.0
33	0x00000000	0.0
34	0x00000000	0.0
35	0x00000000	0.0
36	0x00000000	0.0
37	0x00000000	0.0
38	0x00000000	0.0
39	0x00000000	0.0
40	0x00000000	0.0
41	0x00000000	0.0
42	0x00000000	0.0
43	0x00000000	0.0
44	0x00000000	0.0
45	0x00000000	0.0
46	0x00000000	0.0
47	0x00000000	0.0
48	0x00000000	0.0
49	0x00000000	0.0
50	0x00000000	0.0
51	0x00000000	0.0
52	0x00000000	0.0
53	0x00000000	0.0
54	0x00000000	0.0
55	0x00000000	0.0
56	0x00000000	0.0
57	0x00000000	0.0
58	0x00000000	0.0
59	0x00000000	0.0
60	0x00000000	0.0
61	0x00000000	0.0
62	0x00000000	0.0
63	0x00000000	0.0

weight f4 [64, 21]
0	0x3e0260cc	0.12732238
1	0xbd9448c8	-0.072404444
2	0x3e286dcb	0.16448133
3	0xbe817451	-0.25284055
4	0x3f1f7220	0.62283516
5	0xbd0cd982	-0.03438712
6	0x3e62d5af	0.22151826
7	0x3e9d7064	0.3074981
8	0x3cb82e9b	0.02248316
9	0x3e77f054	0.24212772
10	0xbde5fc46	-0.11229758
11	0xbe1a0f39	-0.1504487
12	0xbe1c5f37	-0.15270697
13	0xbda980ae	-0.08276497
14	0xbd55a469	-0.052158747
15	0xbe61ff1c	-0.22069973
16	0x3dc77423	0.09738948
17	0x3d81c3bc	0.063361615
18	0xbe6bf38b	-0.23042123
19	0x3e939134	0.2882172
20	0xbea75a0a	-0.32685882
21	0xbe84020b	-0.2578281
22	0x3e9da311	0.30788472
23	0x3e744589	0.2385465
24	0xbd368495	-0.044560034
25	0x3de3d8fb	0.1112537
26	0xbd30384f	-0.04302245
27	0x3e781670	0.24227309
28	0xbd95357e	-0.072855935
29	0x3c5f5d94	0.013633151
30	0x3e1d12ff	0.15339278
31	0x3dd8f98e	0.10594474
32	0x3cde514b	0.027138373
33	0x3bbcb16d	0.0057584555
34	0xbd295966	-0.041345023
35	0x3d0fb15b	0.03508125
36	0xbc06ed1d	-0.008235243
37	0x3df697c2	0.12040664
38	0x3d5f85ca	0.05457095
39	0x3d60b588	0.05486062
40	0x3ddeb764	0.10874823
41	0x3ce40471	0.02783415
42	0xbea61340	-0.32436562
43	0x3eaad0a7	0.33362314
44	0x3e159e13	0.14611082
45	0x3e372f8f	0.17889236
46	0x3bb41b79	0.005496439
47	0xbddbc5d0	-0.10731089
48	0xbd948551	-0.072519906
49	0x3d7ce220	0.061739087
50	0xbcd74d27	-0.026281906
51	0x3e07436e	0.13209316
52	0x3d9a6640	0.07539034
53	0x3e14c03a	0.14526454
54	0x3dcb2966	0.099200055
55	0x3d8e337d	0.06943414
56	0x3e63c06f	0.22241376
57	0xbda7ac3b	-0.08187147
58	0x3e1e92bd	0.15485664
59	0xbd756013	-0.059906077
60	0x3e4e6169	0.20154347
61	0x3e3c7ce9	0.18407024
62	0x3e741e18	0.23839605
63	0xbd074b82	-0.033030994
64	0xbccb50a6	-0.02481873
65	0xbca77a17	-0.02044396
66	0xbcc9beda	-0.024627138
67	0xbd12f743	-0.03588034
68	0xbbcdefce	-0.0062846905
69	0xbe4d00cf	-0.2001984
70	0xbe840b06	-0.2578966
71	0x3c4477d9	0.0119914645
72	0xbe287cac	-0.16453809
73	0x3e1d578c	0.15365428
74	0xbbad9cf8	-0.005298253
75	0x3e4df53b	0.20113079
76	0xbe18046e	-0.1484544
77	0x3e108a9c	0.14115375
78	0xbdfcdecc	-0.12347183
79	0x3e3e1e49	0.1856624
80	0x3e47b4c4	0.1950255
81	0x3ebef726	0.37297934
82	0x3e426804	0.18984991
83	0xbea05283	-0.3131295
84	0x3e3a6f8c	0.18206614
85	0xbe43492d	-0.19070883
86	0x3ce3a164	0.027786918
87	0x3d8e8a61	0.069599874
88	0xbcb630f1	-0.022240134
89	0x3d836852	0.06416382
90	0x3e122c40	0.14274693
91	0x3c8dd1c0	0.01731193
92	0x3d4d3630	0.050100505
93	0xbc8dd549	-0.017313616
94	0x3dac7452	0.08420624
95	0x3e19cbc8	0.15019143
96	0x3c44358e	0.011975659
97	0xbc8ad400	-0.016946793
98	0x3cc77121	0.024345936
99	0xbcbfdae9	-0.023419814
100	0x3e0c032f	0.1367309
101	0x3d3574d0	0.044300854
102	0xbd094a72	-0.033518262
103	0xbea84117	-0.3286216
104	0xbdefe165	-0.117129125
105	0xbe09b24d	-0.13446923
106	0xbdb8e824	-0.09028652
107	0xbd52418a	-0.051332034
108	0xbda9ac3b	-0.082848035
109	0xba3d9689	-0.00072322093
110	0x3da03787	0.07823091
111	0x3d28929d	0.041155446
112	0x3deb2656	0.114819214
113	0x3c83b170	0.01607582
114	0x3d937e2b	0.07201799
115	0xbd0c2d2c	-0.034222767
116	0xbdac895e	-0.08424638
117	0xbd3b763a	-0.045767047
118	0xbd2ffe98	-0.04296741
119	0xbd5daa9b	-0.05411778
120	0xbca04eed	-0.019568885
121	0x3d79913b	0.06092952
122	0x3e19e45a	0.15028515
123	0x3c0fb700	0.008771658
124	0xbe91cb8b	-0.28475603
125	0xbeee8222	-0.46583658
126	0xbe18169c	-0.14852375
127	0xbdf1d951	-0.11809028
128	0x3db6bc6e	0.08922659
129	0xbe527e67	-0.20556031
130	0xbdac6fe1	-0.08419777
131	0xbc8a80ca	-0.016907115
132	0xbd000540	-0.031255007
133	0x3e56c169	0.20972218
134	0x3e2f2cfe	0.17107007
135	0x3b376cca	0.0027988427
136	0x3e181f90	0.1485579
137	0x3d1c1fe2	0.038116343
138	0x3e19b2ad	0.15009566
139	0xba7c3e34	-0.0009622306
140	0xbdc4caf2	-0.09609021
141	0x3e4c4007	0.199463
142	0xbe712804	-0.23550421
143	0x3d5f7100	0.054551125
144	0x3e5ae779	0.21377362
145	0xbe83769e	-0.25676435
146	0xbe65702d	-0.22406073
147	0x3e7585ed	0.2397687
148	0x3ebd2933	0.36945495
149	0x3e51e931	0.20499112
150	0xbeca9e2c	-0.395738
151	0xbd47fdaa	-0.048825897
152	0x3dd9ebc2	0.1064067
153	0xbd006869	-0.031349573
154	0x3de76800	0.11299133
155	0x3dec5867	0.11540299
156	0x3cf3e462	0.029771987
157	0xbe239d3f	-0.15977953
158	0x3e285971	0.16440369
159	0x3ce84b59	0.028356241
160	0x3e5fb721	0.21847202
161	0xbc54d478	-0.01299011
162	0xbe9cd7bf	-0.3063335
163	0x3e0e5ee3	0.13903384
164	0xbdf6ac97	-0.12044638
165	0xbd3f08e0	-0.046639323
166	0x3cecc860	0.02890414
167	0xbe459226	-0.19294032
168	0x3e1221ab	0.14270656
169	0x3e3b1740	0.18270588
170	0x3cc57a3b	0.024106136
171	0x3d97c9cc	0.074115366
172	0x3e0722fa	0.13196936
173	0xbde1f039	-0.11032147
174	0x3e1ac5e5	0.15114553
175	0x3e27bedc	0.16381401
176	0x3d7ae5dc	0.061254367
177	0xbe51d2a6	-0.20490512
178	0x3cd1af72	0.025596354
179	0x3d93da86	0.072194144
180	0x3e86d10d	0.26331368
181	0x3cd52d47	0.026022566
182	0x3db1ca96	0.08681218
183	0xbd9b70ae	-0.07589851
184	0xbdc09c88	-0.09404856
185	0x3e727ce7	0.23680459
186	0xbd047da1	-0.03234637
187	0x3ed4f998	0.41596675
188	0x3e14ab29	0.14518417
189	0x3dea33d9	0.114356704
190	0xbe4d494f	-0.20047496
191	0x3e24930f	0.16071723
192	0xbdacf977	-0.08446019
193	0x3d903358	0.07041043
194	0xbd634f75	-0.055495698
195	0xbe653b55	-0.22385915
196	0xbc43a00b	-0.011940013
197	0xbd3163b4	-0.043307975
198	0xbd5b82c1	-0.053591494
199	0xbd2ebcc6	-0.042660497
200	0x3d938b8e	0.07204352
201	0xbd20631c	-0.039157018
202	0x3a1938ac	0.00058449316
203	0x3da9fcc7	0.083001666
204	0xbe1edaf2	-0.15513209
205	0x3dc4692a	0.09590371
206	0xbdf920ef	-0.12164485
207	0xbdabe698	-0.08393592
208	0x3dedbb85	0.11608032
209	0x3e93c431	0.2886062
210	0xbe8c2b71	-0.27376893
211	0x3dae53d7	0.08512085
212	0xbe0fcb47	-0.14042388
213	0xbe35a2ef	-0.17737935
214	0xbe250394	-0.16114646
215	0x3e2caee0	0.16863585
216	0xbdbece1d	-0.09316657
217	0xbe7018f7	-0.23447023
218	0xbca32910	-0.019917041
219	0x3e0399c7	0.1285163
220	0xbd525f47	-0.051360395
221	0x3dc2bb6b	0.095084034
222	0xbe785d08	-0.24254239
223	0x3d0d74d1	0.034535233
224	0xbe4cdceb	-0.20006149
225	0xbdcd8f39	-0.10037083
226	0x3c85badc	0.016324453
227	0xbe12b2b7	-0.14325987
228	0x3cd6bc17	0.026212735
229	0x3c947490	0.018121988
230	0xbc160dfb	-0.009158607
231	0xbd3ed140	-0.046586275
232	0x3e87d42c	0.26529062
233	0xbce441b3	-0.02786336
234	0xbd247967	-0.04015484
235	0x3d2ee788	0.042701274
236	0xbe0b0259	-0.13575114
237	0xbe235d9d	-0.1595368
238	0xbe08bdfd	-0.13353725
239	0xbd8bf19d	-0.068331935
240	0xbdf8e28a	-0.12152584
241	0x3db1a81e	0.08674644
242	0x3dd9bfac	0.10632262
243	0xbe31d1a1	-0.17365123
244	0x3c0e646d	0.008690936
245	0x3ccf5c2d	0.025312508
246	0xbd21a816	-0.03946694
247	0x3d82b1be	0.06381558
248	0xbc44ee30	-0.012019679
249	0xbe05dce0	-0.13072538
250	0xbebaaa36	-0.36457986
251	0xbeb07d7b	-0.34470734
252	0xbe18f4ed	-0.14937182
253	0x3db38274	0.08765116
254	0x3ce95200	0.028481483
255	0x3daf90f2	0.08572568

bias f4 [64]
0	0x3e4fe41f	0.20301865
1	0xbe22d9f3	-0.15903454
2	0xbe512df1	-0.20427682
3	0xbde1d080	-0.11026096
4	0xbe291e34	-0.16515428
5	0x3e81ced0	0.25353098
6	0x3d614109	0.054993663
7	0x3c1696d5	0.009191235
8	0x3e2349af	0.15946077
9	0xbd0b67db	-0.03403459
10	0xbb64954f	-0.0034879034
11	0x39efa030	0.0004570498
12	0xbe1acb76	-0.15116677
13	0x3df20f97	0.1181938
14	0x3cf00d70	0.029303282
15	0x3e46af6b	0.19402854
16	0x3df4e3b2	0.11957492
17	0x3e3876df	0.18014096
18	0xbc3677b0	-0.011136934
19	0xbde12e09	-0.10995109
20	0xbd719f56	-0.058989845
21	0xbc3bece5	-0.011470054
22	0x3e3e974c	0.18612403
23	0x3d4c7790	0.04991871
24	0xbe60ffb5	-0.21972544
25	0xbe16ea76	-0.14737877
26	0xbc24e306	-0.010063892
27	0x3e2f749c	0.17134327
28	0x3d6380fa	0.055542924
29	0xbc4d200e	-0.012519849
30	0xbe0b7112	-0.13617352
31	0x3e4b6f2b	0.19866626
32	0x3dd91142	0.10598995
33	0xbd850809	-0.06495673
34	0x3e721b8b	0.2364332
35	0xbe227088	-0.1586324
36	0xbd8d7cbd	-0.069085576
37	0x3db5ab33	0.08870544
38	0x3e1dc95a	0.15408841
39	0x3e1f5d94	0.15563041
40	0x3e2808ee	0.16409656
41	0x3e04ee63	0.12981562
42	0x3dea2cd6	0.11434333
43	0xbe55b621	-0.20870258
44	0xbe02025d	-0.12696214
45	0x3bd57462	0.006514118
46	0xbe214374	-0.15748388
47	0xbd9959e1	-0.07487846
48	0x3cd7cc94	0.026342668
49	0xbe33cc17	-0.17558323
50	0xbe2d16ff	-0.16903304
51	0x3d74f9de	0.059808604
52	0xbdbf2890	-0.093339086
53	0xbe21f5c8	-0.15816414
54	0xbc1b9eb8	-0.009498291
55	0x3d70ef13	0.05882175
56	0xbdda7ece	-0.10668717
57	0xbe464938	-0.19363868
58	0xbd16ae59	-0.036787365
59	0xbdbf07c2	-0.093276516
60	0x3e18e9f9	0.14933003
61	0x3e6513dc	0.22370857
62	0xbd8f0162	-0.069826856
63	0xbe08a08b	-0.13342492

weight_ih_l0 f4 [64, 64]
0	0x3d0d5e78	0.03451392
1	0x3dcd9f1b	0.100401126
2	0x3cf48c76	0.029852133
3	0xbb4005b8	-0.0029300284
4	0x3dcc398b	0.09971913
5	0x3d822f27	0.0635665
6	0xbc37d2a5	-0.011219655
7	0x3d4fcbd5	0.0507315
8	0xbbc72ae3	-0.0060781105
9	0xbdb8c392	-0.09021677
10	0xbde837f6	-0.11338799
11	0x3d5d4916	0.05402478
12	0xbc91cbdd	-0.017797405
13	0xbe51cdcc	-0.20488662
14	0xbde820a5	-0.113343515
15	0xbdaf3e51	-0.08556808
16	0xbc88c906	-0.016697418
17	0xbd95fe8a	-0.0732394
18	0xbe1122f3	-0.14173488
19	0xbe2d15c7	-0.16902839
20	0xbd87da57	-0.06633442
21	0x3cafca98	0.021458909
22	0x3bdb5acb	0.006694173
23	0x3e05f874	0.13083059
24	0x3e63967e	0.22225377
25	0x3dd31a81	0.103077896
26	0x3cfae1d9	0.03062527
27	0xbe2c5e09	-0.16832747
28	0xbd2c14ee	-0.042012148
29	0xbd8044ed	-0.062631465
30	0x3d2530cd	0.040329743
31	0xbde0f208	-0.10983664
32	0x3cc1c67d	0.023654217
33	0xbe210478	-0.15724361
34	0x3d5d2d83	0.05399848
35	0xbbc27a71	-0.0059350063
36	0xbd306e64	-0.043074027
37	0xbc39234d	-0.01129992
38	0xbd851224	-0.06497601
39	0xbe348a98	-0.17630994
40	0x3db3ff8b	0.08788975
41	0x3dac90ba	0.08426042
42	0xbd99f39b	-0.07517167
43	0x3dc4104e	0.09573422
44	0x3d5af722	0.05345834
45	0x3d33db91	0.043910567
46	0x3cdbe056	0.02684037
47	0xbd551caf	-0.052029308
48	0xbaaf805c	-0.0013389695
49	0x3dd82849	0.10554559
50	0xbd060aa7	-0.032725003
51	0xbd104ef0	-0.03523153
52	0xbe2967eb	-0.16543548
53	0x3e1aa302	0.15101245
54	0xbdf56273	-0.11981668
55	0xbe34cc91	-0.17656161
56	0x3e108648	0.14113724
57	0x3ce07eaf	0.027404157
58	0xbb9a9a1c	-0.0047180783
59	0x3d2f87e5	0.04285421
60	0x3d9ee3ee	0.07758318
61	0x3c0077a9	0.007841029
62	0x3e20d928	0.15707839
63	0xbdd4c0d6	-0.10388343
64	0xbe0287d6	-0.1274713
65	0x3dba33a0	0.09091878
66	0x3d4efeff	0.050536152
67	0xbcfa600c	-0.030563377
68	0xbe3658eb	-0.17807357
69	0x3b1baac0	0.0023752898
70	0xbdaf9ca4	-0.08574799
71	0xbdce4800	-0.10072327
72	0xba933804	-0.0011231904
73	0xbd316c75	-0.043316323
74	0xbd7aa5ec	-0.06119339
75	0xbe071f5c	-0.13195556
76	0xbd3493c1	-0.04408622
77	0x3d8fa254	0.070133835
78	0xbc8c2632	-0.017108057
79	0xbd232906	-0.039834045
80	0xbca0fee9	-0.0196528
81	0xbcc45847	-0.023967875
82	0x3b5086cc	0.0031818626
83	0x3e1323e7	0.14369164
84	0xbdaedafe	-0.08537863
85	0xbe444dc6	-0.19170293
86	0xbcd065de	-0.025439199
87	0xbcf69186	-0.030098688
88	0xbd84cc81	-0.064843185
89	0xbd7ab35c	-0.061206207
90	0xbded3d0b	-0.11583909
91	0xbdfa6095	-0.12225453
92	0xbcc093a7	-0.023507906
93	0x3d63b917	0.055596437
94	0xbdb994cd	-0.090615846
95	0xbdfce8bd	-0.12349079
96	0xbd991a2e	-0.074756965
97	0xbe2e2da9	-0.17009605
98	0x3d53d042	0.051712282
99	0x3d6bf0da	0.05760274
100	0x3d7204b4	0.059086516
101	0x3d4a31ff	0.049364086
102	0xbd55f082	-0.05223132
103	0xbd71c20c	-0.05902295
104	0xbd02842e	-0.031864338
105	0xbd738e23	-0.059461724
106	0x3e11421a	0.14185372
107	0x3d879566	0.06620292
108	0x3dc00e38	0.09377712
109	0xbe1f74ac	-0.1557185
110	0x3d5042cd	0.050844956
111	0xbc217e0b	-0.009856711
112	0xbd55096f	-0.05201095
113	0x3dc46d76	0.095911905
114	0xbe2a03ed	-0.1660306
115	0xbd292c1d	-0.041301835
116	0x3d0cef63	0.034407984
117	0xbd13a2ba	-0.03604386
118	0xbcc8cdab	-0.024512133
119	0x3d85905d	0.06521676
120	0xbae5ad9e	-0.0017523055
121	0x3cd1d6e9	0.025615172
122	0xbe01250e	-0.12611791
123	0xbd17d9bb	-0.03707288
124	0xbdb7f4d2	-0.08982243
125	0xbd00ae4e	-0.03141623
126	0x3bfcaa55	0.007710735
127	0x3cd74763	0.026279157
128	0x3e034de3	0.1282268
129	0xbd89f2eb	-0.06735786
130	0xbcf86134	-0.030319788
131	0x3d6446e1	0.055731658
132	0xbe4571d3	-0.19281702
133	0x3d99528b	0.07486447
134	0x3e4666ef	0.19375204
135	0x3ddff305	0.10935024
136	0x3dea0d3f	0.11428308
137	0xbd668182	-0.056275852
138	0x3d94f1f7	0.07272714
139	0x3d97ecbd	0.07418201
140	0x3e0d8e7c	0.13823885
141	0x3dbfdcb5	0.093682684
142	0xbd2deba7	-0.042461064
143	0xbd432c16	-0.047649466
144	0xbd097c16	-0.033565603
145	0xbd9b6fe8	-0.07589704
146	0xbdc5bba5	-0.09654931
147	0x3dd88ff7	0.10574334
148	0x3dcce745	0.10005049
149	0xbdcd9635	-0.10038415
150	0x3da41d57	0.08013409
151	0xbc854737	-0.01626931
152	0xbda8dc55	-0.0824515
153	0xbcc63a23	-0.024197644
154	0x3d776c5f	0.060406085
155	0x3cf17fec	0.029479943
156	0x3d87b92b	0.06627115
157	0x3df57530	0.11985242
158	0xbc761c77	-0.015021435
159	0x3bc4af6e	0.006002358
160	0xbd99e608	-0.07514578
161	0xbd7628b1	-0.0600974
162	0xbddcf952	-0.107897416
163	0xbbd62724	-0.0065354276
164	0xbdf54cb0	-0.119775176
165	0xbdb32bc8	-0.08748585
166	0x3d9efbbc	0.07762858
167	0x3da791c6	0.08182101
168	0xbd99ffce	-0.07519494
169	0xbcc69517	-0.024241013
170	0xbddec94a	-0.108782366
171	0xbac4b19f	-0.0015006548
172	0xbca41466	-0.020029258
173	0x3e0d0bcc	0.13774031
174	0xbdff693c	-0.12471244
175	0xbe09c102	-0.13452533
176	0xbd80fe4d	-0.06298504
177	0xbdb2feb3	-0.08739986
178	0x3dcef45b	0.10105201
179	0xbd4dfa9c	-0.050287828
180	0xbd9c8644	-0.07642797
181	0xbeacf18f	-0.33778045
182	0xbc8d2241	-0.017228248
183	0x3df298f8	0.11845583
184	0x3bb38c9b	0.005479408
185	0x3d255033	0.040359687
186	0xbdd97779	-0.10618491
187	0xbc195e34	-0.009360839
188	0xbbd58fe3	-0.006517397
189	0xbdd393fd	-0.10330961
190	0x3d0a3010	0.033737242
191	0x3c019d2a	0.007911006
192	0x3ca9e893	0.020740783
193	0x3dd55588	0.104167044
194	0x3d162f10	0.036665976
195	0xbde903a1	-0.11377645
196	0xbdf2c9f6	-0.11854927
197	0xbe2182cd	-0.15772553
198	0xbe8f8367	-0.2802994
199	0xbddff430	-0.10935247
200	0x3daae0a6	0.083436295
201	0xbd12e12f	-0.035859283
202	0x3cf7d489	0.030252712
203	0xbe0ba212	-0.13636044
204	0xbd4f3037	-0.05058309
205	0xbc47175e	-0.012151567
206	0xbcff7468	-0.031183437
207	0x3db28762	0.087172285
208	0xbe1a621e	-0.15076491
209	0x3d64c0e3	0.055848014
210	0xbb3b82de	-0.0028611938
211	0xbd09ef5b	-0.033675533
212	0xbdb2eb93	-0.087363385
213	0xbdb2397f	-0.08702373
214	0x3d45c951	0.048287693
215	0xbd48c22f	-0.049013313
216	0x3e06fa92	0.13181522
217	0xbd0c42b9	-0.03424332
218	0xbd1ba04b	-0.037994664
219	0x3db0516e	0.086092815
220	0xbded5e56	-0.11590259
221	0xbd494ef3	-0.049147557
222	0x3dc51fd3	0.096252106
223	0x3d2a0b86	0.041514896
224	0xbdf4a393	-0.11945262
225	0xbd976d3e	-0.07393883
226	0xbd887c08	-0.06664282
227	0x3d61f1cd	0.05516224
228	0x3c0fbfb1	0.00877373
229	0x3e5edce7	0.21763955
230	0x3ccfc77b	0.025363674
231	0xbd987212	-0.07443632
232	0x3b88346c	0.00415664
233	0x3d1506a7	0.036383297
234	0xbe0f86e5	-0.14016302
235	0xbddef912	-0.1088735
236	0x3d8dc57b	0.06922432
237	0xbe0ecd62	-0.13945535
238	0xbcf1e02c	-0.029525839
239	0x3d2cf65e	0.04222714
240	0xbdb27149	-0.08713014
241	0x3de9d2d9	0.11417169
242	0xbdbc2dfd	-0.09188459
243	0xbe152095	-0.1456321
244	0xbd8d7831	-0.0690769
245	0x3e197dad	0.14989348
246	0x3c00cd73	0.007861483
247	0x3d51337c	0.05107449
248	0x3de69bed	0.11260209
249	0x3d7d09ac	0.061776802
250	0xbd511c4a	-0.05105237
251	0x3de220ed	0.11041436
252	0xbe298cbb	-0.1655759
253	0xbda6c763	-0.08143499
254	0x3cb94e97	0.022620482
255	0xbc16f7d1	-0.0092143575

weight_hh_l0 f4 [64, 64]
0	0x3e1a8d80	0.1509304
1	0x3b9fd352	0.0048774863
2	0x3ce513f9	0.027963625
3	0x3cff5019	0.031166123
4	0xbd51a95f	-0.051186915
5	0xbd862714	-0.06550422
6	0x3cf014ba	0.029306758
7	0xbb5e357e	-0.0033906396
8	0xbd9f799b	-0.07786866
9	0x3dfe9adb	0.1243188
10	0x3d2ca1ec	0.04214661
11	0x3da23b13	0.07921424
12	0xbe1999b7	-0.15000044
13	0xbd94492a	-0.072405174
14	0xbcd6a53f	-0.026201842
15	0x3df4803d	0.11938522
16	0x3cacf5c3	0.021113282
17	0x3e09f4a4	0.13472229
18	0x3d4cc890	0.04999596
19	0x3da637bd	0.081161
20	0x3c1b41dd	0.009476152
21	0xbd188902	-0.037240036
22	0xbdb0ab10	-0.086263776
23	0xbd0f126b	-0.034929674
24	0xbc827779	-0.01592611
25	0xbe34fe1f	-0.17675065
26	0xbcbcc1a6	-0.023041558
27	0xbe1b5ece	-0.15172884
28	0xbd9dd6f5	-0.077070154
29	0x3d542e1b	0.051801782
30	0x3ce6af43	0.028159743
31	0xbd810114	-0.06299034
32	0xbc698e64	-0.01425514
33	0xbc8d5c7a	-0.01725601
34	0x3d1dc0ae	0.03851383
35	0x3d85a5ad	0.06525741
36	0x3c8cc0b8	0.01718174
37	0xbdae7d37	-0.085199766
38	0x3ce9437e	0.028474566
39	0x3da9238d	0.08258734
40	0xbd72d4e9	-0.05928508
41	0xbd560f6f	-0.052260812
42	0x3ad3fdf0	0.0016173702
43	0xbc75b261	-0.014996142
44	0xbd3d2bab	-0.046184223
45	0x3dd4d6a5	0.10392503
46	0xbb002bed	-0.0019557432
47	0xbc951a4d	-0.018201018
48	0xbd5909bf	-0.05298781
49	0x3e2d6a40	0.16935062
50	0xbd4c3af5	-0.049860913
51	0xbdbad106	-0.09121899
52	0x3e09c92f	0.13455652
53	0x3db82d57	0.08993023
54	0xbddf87a1	-0.10914541
55	0x3d6c36e2	0.057669528
56	0xbdd41610	-0.103557706
57	0xbce3350b	-0.027735254
58	0x3dbbca29	0.09169418
59	0xbe21b704	-0.15792471
60	0xbd1e2cad	-0.038616825
61	0x3de4e48b	0.111764036
62	0xbdf9bade	-0.12193845
63	0xbcda5509	-0.026651876
64	0xbd41b85d	-0.047294963
65	0x3e793733	0.24337463
66	0x3cc1b133	0.023644065
67	0x3dbaf86b	0.09129413
68	0xbd157f12	-0.036498137
69	0xbd16ef42	-0.036849268
70	0xbe04891a	-0.12942925
71	0x3e0103b9	0.12599076
72	0xbdd835e2	-0.10557152
73	0x3dd94a7e	0.106099114
74	0x3db52d42	0.08846523
75	0xbdb3f6eb	-0.0878733
76	0xbd95ccbf	-0.07314443
77	0x3d87ca0e	0.06630336
78	0x3d067d47	0.032834318
79	0x3d34a80e	0.044105582
80	0x3d6cf2e0	0.05784881
81	0x3cc29deb	0.023756942
82	0x3e183018	0.14862096
83	0xbd9b9bdf	-0.075980894
84	0x3da3a4e4	0.07990435
85	0xbdd4883c	-0.10377547
86	0xbdead997	-0.11467283
87	0x3db664b6	0.08905928
88	0xbd51e194	-0.05124052
89	0xbd4631c6	-0.04838731
90	0x3e1d0391	0.15333392
91	0x3cd8b7f6	0.026454907
92	0xbcecf324	-0.028924532
93	0x3df9eed2	0.122037545
94	0xbc62cbbd	-0.01384252
95	0xbd9d262a	-0.07673295
96	0xbdd7a26d	-0.10529027
97	0xbcc08494	-0.023500718
98	0x3d952dd6	0.07284133
99	0x3d93b885	0.07212929
100	0x3dabae08	0.08382803
101	0x3e6628de	0.22476527
102	0x3d4f7950	0.050652802
103	0xbd16d1f8	-0.036821336
104	0x3da449cc	0.08021888
105	0x3c8eab23	0.017415589
106	0x3d9ad605	0.07560352
107	0xbddbd4c1	-0.10733939
108	0xbde8ac9d	-0.11361048
109	0x3dade5e9	0.084911175
110	0x3d8aca1b	0.0677683
111	0xbe3b3589	-0.18282141
112	0x3d1661a1	0.0367142
113	0x3e025cce	0.12730715
114	0x3cc11998	0.023571774
115	0xbdb14654	-0.08655992
116	0xba49ca94	-0.0007697728
117	0x3d8a65b6	0.06757681
118	0xbd19c702	-0.037543304
119	0xbe273568	-0.16328967
120	0x3e2310ee	0.15924427
121	0x3c80c603	0.01571942
122	0xbdc31d9a	-0.095271304
123	0xbd85c6df	-0.06532072
124	0xbd598612	-0.053106375
125	0xbd1078eb	-0.035271566
126	0xbc42db8f	-0.011893167
127	0xbe560cef	-0.20903371
128	0x3ddfcdd5	0.10927931
129	0x3d9b54cc	0.07584533
130	0x3ea07020	0.31335545
131	0xbd237707	-0.039908435
132	0xbd26d151	-0.040726963
133	0xbe032279	-0.12806119
134	0x3df0c3a1	0.11756063
135	0xbcfe2217	-0.031022115
136	0x3d2a0c00	0.04151535
137	0xbddc9b90	-0.10771859
138	0x3d1edf04	0.038786903
139	0x3d488a4d	0.04896002
140	0xbd4316c3	-0.04762913
141	0xbdd9bb68	-0.10631448
142	0xbdd345b7	-0.103160314
143	0xbc977fbc	-0.018493526
144	0x3e31f88c	0.1737997
145	0x3d97dca5	0.074151315
146	0x3e45ae1e	0.19304702
147	0x3da1c450	0.07898772
148	0x3d9ee9b7	0.07759421
149	0x3cce6f03	0.025199419
150	0xbe3043ab	-0.17213313
151	0xbe5261ee	-0.2054517
152	0x3e5d57a9	0.21615471
153	0xbd0490ca	-0.032364644
154	0x3e25fa8c	0.16208857
155	0x3db5c5bc	0.088756055
156	0xbdae6a07	-0.08516317
157	0xbc99c100	-0.018768787
158	0x3cea496f	0.028599469
159	0x3e07c33a	0.13258067
160	0x3d6b2262	0.057405837
161	0xbe05fdcb	-0.13085096
162	0xbe08c941	-0.13358022
163	0x3de5f672	0.11228646
164	0x3e300381	0.17188837
165	0x3d8ef07f	0.06979465
166	0xbccaa773	-0.02473805
167	0x3d496863	0.049171817
168	0xbd404d82	-0.046948917
169	0xbdcd70a9	-0.10031254
170	0xbbd10dd5	-0.0063798227
171	0xbe02db29	-0.12778915
172	0x3b2a9207	0.002602698
173	0x3db0d7ba	0.086348966
174	0x3c6a13dd	0.014286962
175	0xbe141ad0	-0.14463353
176	0x3c9aaa26	0.018879961
177	0xbd8b08b5	-0.0678877
178	0xbc3922b9	-0.011299782
179	0xbe09bbf7	-0.13450609
180	0x3e7d84d1	0.24757697
181	0x3c530b78	0.012881152
182	0x3cbcfb22	0.023068968
183	0xbdd533e5	-0.10410289
184	0x3dd56062	0.10418774
185	0xbdbdb92a	-0.09263833
186	0xbdc7ad65	-0.09749869
187	0xbd81d293	-0.06338992
188	0x3e0a3026	0.1349493
189	0xbd9a4b9c	-0.075339526
190	0xbd289797	-0.041160192
191	0x3e0523eb	0.13001983
192	0x3c4d5167	0.012531615
193	0xbdc6744b	-0.0969015
194	0xbe24e256	-0.16101965
195	0x3e4a68e4	0.19766575
196	0xbd403621	-0.04692662
197	0x3e07d7df	0.13265942
198	0xbdfa9b88	-0.122366965
199	0x3d88242e	0.06647526
200	0x3cf5819a	0.029969025
201	0xbd84a51d	-0.06476805
202	0xbd5eab9a	-0.05436287
203	0xbdc119a7	-0.09428721
204	0xbd1dbd33	-0.038510513
205	0x3d71fa6a	0.059076704
206	0x3c5c7e36	0.013457825
207	0xbce2db4a	-0.027692456
208	0xbdbdd36c	-0.09268841
209	0x3e198b2b	0.14994495
210	0x3d9d2237	0.076725416
211	0xbe237167	-0.15961228
212	0xbd9c38c5	-0.076280154
213	0xbe03260b	-0.12807481
214	0xbc9a1155	-0.018807093
215	0xbda2f78d	-0.07957373
216	0xbe1ef13d	-0.15521713
217	0xbde90493	-0.113778256
218	0x3df6443a	0.12024732
219	0xbdb1d2c6	-0.0868278
220	0x3de282a5	0.11060075
221	0x3e43eee2	0.19134095
222	0x3e03a46d	0.12855692
223	0x3df71d38	0.1206612
224	0x3d90479e	0.0704491
225	0xbd80d83e	-0.06291245
226	0xbc6dc427	-0.014512098
227	0x3dc0bbfb	0.094108544
228	0xbd336e1f	-0.04380619
229	0x3dd98d9f	0.10622715
230	0x3d2782ab	0.0408961
231	0xbcdfb3b6	-0.027307373
232	0xbe0a1f89	-0.13488592
233	0xbd9f2f94	-0.07772747
234	0xbc7ec9c7	-0.015551037
235	0x3cb9607e	0.022629019
236	0x3cc88a99	0.024480151
237	0x3b2fe8f7	0.0026841739
238	0xbdb1f2db	-0.08688899
239	0x3da2f8b3	0.07957592
240	0x3d9d3001	0.07675172
241	0x3d12efba	0.035873152
242	0xbc31049a	-0.01080432
243	0xbda84efd	-0.08218191
244	0xbdca1eeb	-0.098691784
245	0x3d0a2e40	0.033735514
246	0xbde1aff7	-0.11019891
247	0x3d7eb182	0.062181003
248	0x3d4c6312	0.04989917
249	0xbcf678f1	-0.030086966
250	0xbd9c5ccb	-0.07634886
251	0x3e5e4fc5	0.21710117
252	0xbdc396a2	-0.09550215
253	0x3e69ed86	0.22844514
254	0x3d495a33	0.049158286
255	0x3e8e50f7	0.27796146

bias_ih_l0 f4 [64]
0	0xbccd470b	-0.02505829
1	0xbca58d0c	-0.020208858
2	0x3dcb5dde	0.09930013
3	0x3da2362d	0.079204895
4	0xbe0757e6	-0.13217124
5	0x3d873ddb	0.06603595
6	0x3d44c4d1	0.04803926
7	0xbb2e946e	-0.0026638764
8	0x3c9262e6	0.017869424
9	0xbd5bee6e	-0.05369418
10	0x3de90d32	0.1137947
11	0x3d06c876	0.03290602
12	0xbd97bc5a	-0.07408972
13	0x3df0c770	0.1175679
14	0x3d5a6589	0.053319488
15	0x3c7285fd	0.014802453
16	0xbe0dcaf7	-0.13846956
17	0x3cec3b09	0.028836744
18	0x3b290a30	0.0025793426
19	0xbb8c23a2	-0.0042767087
20	0x3decb5ee	0.11558138
21	0xbda17e38	-0.078854024
22	0x3db6c397	0.089240246
23	0xbce25f2a	-0.027633268
24	0xbc77d368	-0.015126087
25	0x3c7c5c19	0.015402817
26	0x3e0b6693	0.13613348
27	0xbcef86d6	-0.0292391
28	0x3d90d7bd	0.07072399
29	0xbc25b865	-0.010114764
30	0x3d12cc2e	0.035839252
31	0xbe017ab6	-0.12644467
32	0xbdc5d089	-0.096589155
33	0x3e11fcc8	0.14256585
34	0x3c5730aa	0.013134161
35	0xbdd4d825	-0.10392789
36	0xbd152670	-0.03641361
37	0xbd6b4a27	-0.057443764
38	0xbae1db7a	-0.0017231547
39	0x3bc6722b	0.0060560904
40	0xbcb51f71	-0.022109719
41	0x3d820350	0.06348288
42	0x3db1eea6	0.08688097
43	0xbca06ad6	-0.019582193
44	0xbd011070	-0.031509817
45	0xbdc7554b	-0.09733065
46	0xbc753d71	-0.014968262
47	0xbdd3d3ce	-0.10343133
48	0x3d9259b3	0.07146015
49	0xbd923931	-0.07139815
50	0xbd4f23be	-0.050571196
51	0x3d5db2b5	0.054125506
52	0xbd9e75db	-0.07737323
53	0x3d66cf64	0.056350127
54	0xbdadcfc1	-0.084868915
55	0x3cc17de5	0.023619602
56	0x3dc63a45	0.09679083
57	0x3e0dc38c	0.13844126
58	0xbdc6a049	-0.09698541
59	0x3d96112b	0.07327493
60	0x3da71024	0.081573755
61	0x3a74ecfa	0.00093431736
62	0x3da683d0	0.0813061
63	0xbc40e71f	-0.011773854

bias_hh_l0 f4 [64]
0	0xbdbaf71e	-0.09129165
1	0xbd39ffeb	-0.045410078
2	0xbdd4b43e	-0.10385941
3	0x3d65f4c8	0.056141645
4	0x3d109d98	0.035306543
5	0xbb76aa83	-0.0037638254
6	0x3dbf9347	0.09354263
7	0xbdc022ce	-0.093816385
8	0xbcf69025	-0.03009803
9	0x3ca0a4dc	0.019609861
10	0xbdaef023	-0.08541896
11	0x3d02007f	0.031738754
12	0xbd2464c7	-0.04013517
13	0x3d928929	0.071550675
14	0x3da0826a	0.078373745
15	0x3d3afa2c	0.04564874
16	0xbd9991af	-0.0749849
17	0x3c83bda9	0.016081648
18	0xbdbda548	-0.092600405
19	0xbded96e1	-0.116010435
20	0x3d5a5915	0.05330761
21	0x3d608338	0.05481264
22	0xbd84e4c4	-0.06488946
23	0xbd050351	-0.032473866
24	0x3da835cb	0.08213385
25	0x3d9c8225	0.076420106
26	0x3d5858f5	0.05281921
27	0x3cbf117a	0.023323763
28	0xbca0a48e	-0.019609716
29	0x3d2b7706	0.041861556
30	0xbdc3d730	-0.09562528
31	0xbda4d552	-0.080485
32	0x3da9c4fc	0.08289525
33	0x3cf1b70e	0.029506233
34	0x3dbfefdf	0.09371924
35	0xbdc77630	-0.09739339
36	0xbcfcad73	-0.030844426
37	0x3cd3d7da	0.025859762
38	0xbd6f4bdf	-0.058421966
39	0xbc3fedab	-0.011714379
40	0x3de4d1b6	0.11172812
41	0x3d9eea9c	0.07759592
42	0xbc54c2ac	-0.0129858665
43	0x3dc1b455	0.09458224
44	0x3db29a0c	0.08720788
45	0x3d9f0aba	0.07765718
46	0x3deb9141	0.11502314
47	0x3de25589	0.11051471
48	0xbdfb9f9f	-0.12286305
49	0xbcad153f	-0.021128295
50	0x3c59dd9e	0.013297467
51	0xbcbce9cd	-0.023060704
52	0x3c8caa6a	0.017171104
53	0x3db49dce	0.08819161
54	0x3d072ed1	0.033003632
55	0x3d1f9d24	0.03896822
56	0xbbb5c14d	-0.005546725
57	0xbd8927b4	-0.06697026
58	0xbd39fb4f	-0.045405682
59	0x3dcded4f	0.10055029
60	0xbc58aeeb	-0.013225297
61	0xbd53e69f	-0.05173361
62	0x3da7e9ba	0.08198877
63	0x3d42d4fe	0.047566406

weight f4 [64, 64]
0	0x3e3a24d0	0.18178105
1	0x3bd10c98	0.006379675
2	0xbd02a9f0	-0.031900346
3	0xbe39f918	-0.18161428
4	0x3d69fc77	0.057125535
5	0x3db9f5d1	0.09080089
6	0xba6fa2ea	-0.00091414026
7	0xbe40e654	-0.18837863
8	0xbd24851a	-0.040165998
9	0xbbf04ada	-0.0073331418
10	0x3d595315	0.05305775
11	0xbe08b89f	-0.13351677
12	0xbd8ab096	-0.06771962
13	0x3e509020	0.2036748
14	0xbd368038	-0.044555873
15	0x3c9fceca	0.019507784
16	0x3d86f8f0	0.0659045
17	0xbaebccff	-0.0017990171
18	0xbd784f91	-0.060622755
19	0xbab4e732	-0.0013801812
20	0x3d5c976b	0.05385534
21	0xbda5654b	-0.08075961
22	0x3dc1a7da	0.09455843
23	0x3e8464d3	0.25858173
24	0xbe5f9605	-0.21834572
25	0xbca7e13e	-0.020493146
26	0xbd49984c	-0.049217507
27	0x3db1bc33	0.08678474
28	0x3d8e45d3	0.06946912
29	0xbda8a283	-0.08234122
30	0xbce41978	-0.027844176
31	0xbe0f305f	-0.13983296
32	0xbe507de3	-0.20360522
33	0xbb284dd9	-0.0025681166
34	0xbdcf851f	-0.10132813
35	0x3df5e847	0.12007194
36	0xbde49b3d	-0.11162422
37	0xbda2ea1f	-0.07954811
38	0xbda28827	-0.07936125
39	0x3ddcd45e	0.10782693
40	0x3e172b94	0.14762717
41	0x3cd99a70	0.0265629
42	0xbe61a0e2	-0.22034028
43	0xbc73d58e	-0.014882458
44	0x3cb70602	0.022341732
45	0x3d83b08a	0.064301565
46	0x3d5216d7	0.051291313
47	0x3d6dbefa	0.058043458
48	0x3d1da40d	0.03848653
49	0xbcd9b96b	-0.026577672
50	0x3d810fcc	0.06301841
51	0x3e6212b7	0.22077452
52	0x3ccdca34	0.025120832
53	0xbe59c3de	-0.21266124
54	0xbd2d34e6	-0.042286776
55	0x3d2a3458	0.041553825
56	0x3d7c5367	0.061602976
57	0xbe0a3657	-0.13497292
58	0xbd738dfa	-0.05946157
59	0x3c06fec6	0.008239454
60	0xbe948b1d	-0.29012385
61	0x3d2cebfa	0.042217232
62	0x3ca2c9b0	0.019871563
63	0x3db5e462	0.08881451
64	0xbdd99727	-0.10624533
65	0xbc4f10c9	-0.012638279
66	0x3e33856b	0.17531364
67	0xbdff153d	-0.12455223
68	0x3e28de4d	0.16491051
69	0x3dbb3297	0.091405086
70	0x3c863c2d	0.016386116
71	0xbe82d793	-0.25555095
72	0xbe481651	-0.19539763
73	0xbd972f7f	-0.07382106
74	0xbd89db7c	-0.067313164
75	0x3daa83b6	0.08325903
76	0x3e7036f7	0.23458467
77	0x3da38446	0.079842135
78	0xbda730c2	-0.08163597
79	0x3db5a431	0.08869208
80	0x3e0e74d0	0.13911748
81	0x3cf631b2	0.030052993
82	0xb9afcc55	-0.0003353084
83	0x3d10178e	0.035178714
84	0x3dbd08e0	0.092302084
85	0xbd9dcafa	-0.0770473
86	0xbdcd5064	-0.10025099
87	0xbe780973	-0.24222355
88	0x3db08e8e	0.0862094
89	0xbd9d78d5	-0.076890625
90	0xbbbd41b7	-0.005775656
91	0x3c6bb5c0	0.014386594
92	0xbd84f854	-0.06492677
93	0xbd9339d0	-0.07188761
94	0xbdfbaab5	-0.12288419
95	0x3decad26	0.11556463
96	0xbc383d27	-0.011245049
97	0xbdcc65f1	-0.09980381
98	0xbc490cfc	-0.012271162
99	0x3e51201c	0.20422405
100	0x3d39c13e	0.045350306
101	0xbd8299d7	-0.06376999
102	0x3cfc0910	0.03076604
103	0x3cfd9e52	0.030959282
104	0xbe4f33d0	-0.20234609
105	0x3b3bc9de	0.0028654258
106	0x3d65d29c	0.056109056
107	0x3c53c1ba	0.012924606
108	0xbce5efef	-0.02806851
109	0x3dfb242a	0.12262757
110	0x3e1a5201	0.15070345
111	0xbd65e4b0	-0.056126297
112	0xbe004437	-0.12526022
113	0xbc5f6540	-0.01363498
114	0x3d983691	0.07432283
115	0x3e73726b	0.23774116
116	0x3cec032f	0.028810112
117	0x3d458b2f	0.04822844
118	0x3d731fa6	0.059356354
119	0xbd919926	-0.07109289
120	0xbb118342	-0.002220348
121	0xbe1b3ce6	-0.1515995
122	0xbdac4182	-0.08410932
123	0x3ebc7f8a	0.36816055
124	0x3de0d6ac	0.109784454
125	0x3d688e63	0.056776416
126	0x3cc80e06	0.02442075
127	0x3dfdefdf	0.123992674
128	0x3d249d53	0.0401891
129	0xbe26ff63	-0.1630836
130	0xbd8d41ad	-0.06897292
131	0xbf2aac09	-0.66668755
132	0x3c82cfcd	0.015968228
133	0xbd1e6cb0	-0.03867787
134	0x3ecf1e0e	0.40452617
135	0x3e14ffaf	0.1455066
136	0x3eb32dcc	0.34995878
137	0xbe4bfa8c	-0.19919795
138	0x3e1580b2	0.14599875
139	0x3eeb344a	0.4593833
140	0xbd64242b	-0.055698555
141	0x3dd778aa	0.10521062
142	0xbc3a7152	-0.011379557
143	0x3dcc1b53	0.09966149
144	0x3d9c952b	0.07645639
145	0xbe52e1d8	-0.20593965
146	0x3c5c66b8	0.013452224
147	0xbe0adcca	-0.13560787
148	0x3eb08a33	0.34480438
149	0xbc8b3afc	-0.0169959
150	0xbdd65258	-0.104649246
151	0x3d1a9501	0.037739757
152	0x3e061a61	0.13096
153	0x3e60216c	0.2188775
154	0xbd532125	-0.05154528
155	0xbc823da5	-0.015898535
156	0xbe8403d0	-0.2578416
157	0xbe48e2ae	-0.19617721
158	0xbda7f668	-0.08201295
159	0x3caa9c55	0.020826498
160	0xbe7dd837	-0.2478951
161	0x3d6d4109	0.05792335
162	0x3c91f25f	0.017815767
163	0xbe31757a	-0.1732997
164	0x3dec09f0	0.11525333
165	0xbe8fadac	-0.2806219
166	0xbdcba713	-0.09943976
167	0x3e71092f	0.2353866
168	0x3ded76e2	0.11594941
169	0x3e3bb6e1	0.18331482
170	0x3cd3706f	0.025810448
171	0x3da1c2cf	0.07898485
172	0xbe47fab2	-0.19529226
173	0xbb85be03	-0.004081489
174	0x3e264d9b	0.16240542
175	0xbe31648b	-0.1732351
176	0xbda89c4c	-0.08232936
177	0xbe2dc525	-0.16969736
178	0x3d54fef0	0.05200094
179	0x3e80dc37	0.2516801
180	0x3e34c9f0	0.17655158
181	0xbe08412a	-0.13306108
182	0xbe318fd3	-0.17340021
183	0xbc2922d1	-0.010323242
184	0x3e2eef70	0.17083526
185	0x3dcb9e35	0.09942285
186	0xbd56fa05	-0.05248453
187	0xbd0096f4	-0.03139396
188	0xbe55bab3	-0.20872001
189	0xbe197f79	-0.14990033
190	0x3e4e8909	0.20169462
191	0xbe3e4405	-0.18580635
192	0x3dfa7423	0.122291826
193	0xbc8c6ff8	-0.017143235
194	0xbe136950	-0.14395642
195	0x3d5d9072	0.054092832
196	0xbdb45063	-0.08804395
197	0xbd1e8198	-0.03869781
198	0x3da9465f	0.08265375
199	0xbda57990	-0.08079827
200	0xbd84503f	-0.06460618
201	0x3e8e74f2	0.27823597
202	0xbd936c97	-0.07198446
203	0xbe0d0397	-0.137709
204	0xbd829d9d	-0.063777186
205	0xbdb30544	-0.08741239
206	0xbd9ed265	-0.07754973
207	0xbc2673e9	-0.010159471
208	0xbdc135b6	-0.09434073
209	0x3d56cf85	0.052444
210	0x3d974a4a	0.073872164
211	0x3dafb5b4	0.08579579
212	0x3e59c4c9	0.21266474
213	0xbe1b286a	-0.15152135
214	0xbc48be61	-0.012252421
215	0x3e0603a8	0.13087332
216	0x3cbfd6f8	0.023417935
217	0xbcb27acc	-0.02178707
218	0xbc995f7e	-0.018722292
219	0x3d97cf7d	0.07412622
220	0xbe3bd340	-0.18342304
221	0xbb5e53fd	-0.0033924573
222	0x3d366237	0.04452726
223	0xbdda88c9	-0.10670621
224	0xbdc70d07	-0.09719282
225	0xbd2905ff	-0.041265484
226	0x3d1632af	0.03666943
227	0x3d519a48	0.051172525
228	0x3e2297a8	0.15878165
229	0xbd56a9c3	-0.05240799
230	0x3dce8e13	0.10085692
231	0x3d756b9f	0.05991709
232	0xbd049e14	-0.032377318
233	0x3df0fbc5	0.11766771
234	0x3bc98f5e	0.006151124
235	0xbd2920ec	-0.041291162
236	0x3d18b106	0.037278198
237	0x3d958e44	0.07302526
238	0x3e1aa36d	0.15101404
239	0xbd8b12d7	-0.06790703
240	0xbd33ecd9	-0.043927047
241	0x3e11cea9	0.14238991
242	0xbc7eaf0b	-0.015544663
243	0x3dd1b7cb	0.10240134
244	0x3d202321	0.039096
245	0xbd95cfd4	-0.07315031
246	0xbd9f99d6	-0.07793014
247	0x3d8db443	0.06919148
248	0xbd3574c4	-0.04430081
249	0xbd92f278	-0.071751535
250	0xbe2462e7	-0.16053353
251	0x3e430221	0.19043781
252	0xbc6249b9	-0.013811522
253	0xbd60daf5	-0.054896314
254	0xbdb16805	-0.08662418
255	0x3dc63784	0.096785575

bias f4 [64]
0	0xbd436430	-0.047702968
1	0x3c52a081	0.01285565
2	0xbcf3bb6f	-0.029752461
3	0x3d2240ae	0.039612465
4	0xbdf7b98b	-0.120959364
5	0xbe1bd4c6	-0.15217885
6	0x3b130b3f	0.0022437123
7	0xbd50a632	-0.050939746
8	0xbdadb50d	-0.08481798
9	0xbd9e5d52	-0.07732643
10	0xbe131f08	-0.14367306
11	0xbdf831fd	-0.121189095
12	0x3d7ab036	0.061203204
13	0xbd40ec14	-0.04710014
14	0x3d5a3602	0.053274162
15	0xbd4d4fab	-0.050124805
16	0xbd1ae43d	-0.03781532
17	0x3dc37140	0.09543085
18	0xbd050245	-0.032472868
19	0x3ddea200	0.10870743
20	0x3e119526	0.14217052
21	0xbd4fe268	-0.050753027
22	0xbda51f47	-0.08062606
23	0xbd1be923	-0.038064133
24	0x3d241877	0.040062394
25	0xbd14c640	-0.03632188
26	0xbd9d83d6	-0.07691161
27	0xbca6b94f	-0.020352034
28	0xbab45333	-0.0013757705
29	0xbcf1993d	-0.029492015
30	0x3d4a53ad	0.049396206
31	0x3ddc421b	0.10754796
32	0x3e389e76	0.18029198
33	0xbda64bf5	-0.081199564
34	0x3d4bb2c1	0.04973102
35	0x3c8fa676	0.01753543
36	0x3d3cba90	0.046076357
37	0xbd58b699	-0.052908514
38	0xbd31e69d	-0.04343282
39	0xbd3607e9	-0.044441137
40	0xbdf83ab7	-0.12120574
41	0xbda55b00	-0.080739975
42	0x3c9cae78	0.019126162
43	0x3b019651	0.0019773433
44	0xbd81cc22	-0.06337763
45	0xbdd75dfa	-0.105159715
46	0x3ccb0002	0.024780277
47	0x3dd86bd2	0.1056744
48	0xbdb6fa63	-0.08934476
49	0xbc4649ce	-0.012102557
50	0xbda7eecb	-0.08199843
51	0x3dfe3f43	0.1241441
52	0x3d289efe	0.04116725
53	0x3def9044	0.11697438
54	0xbdadf644	-0.08494237
55	0xbdf18ce8	-0.11794454
56	0x3c2cfec1	0.010558785
57	0x3e93e372	0.28884465
58	0x39cc6541	0.00038985352
59	0xbc9ac17a	-0.018891085
60	0x3dfc798f	0.12327873
61	0x3dbeb35d	0.093115546
62	0xbe156f27	-0.14593183
63	0xba36cd08	-0.0006973301

weight f4 [64, 64]
0	0xbaffeee8	-0.0019526156
1	0xbe623ca7	-0.2209345
2	0xbc20a4d6	-0.009804925
3	0xbc436f57	-0.011928401
4	0x3d8425bd	0.064525105
5	0xbd83eafa	-0.064413026
6	0xbd84181d	-0.06449912
7	0x3dae7c80	0.0851984
8	0xbd74dcfe	-0.059781067
9	0xbcfb9a67	-0.030713273
10	0x3c9a7be2	0.0188579
11	0x3c5c709a	0.013454581
12	0x3cda73ce	0.026666548
13	0x3d8b16a3	0.06791427
14	0xbd555b88	-0.052089244
15	0x3d170935	0.036874015
16	0xbe1d9648	-0.15389359
17	0xbb3ef39d	-0.0029136904
18	0x3dda01c6	0.106448695
19	0x387dd006	6.0513637e-05
20	0xbe2303b2	-0.15919378
21	0xbc536c51	-0.012904243
22	0xbdd106be	-0.10206364
23	0x3d2d21b3	0.042268466
24	0x3e0d7426	0.13813838
25	0x3e14a027	0.14514218
26	0xbc060306	-0.008179432
27	0xbe22e064	-0.1590591
28	0xbbdb609b	-0.006694866
29	0xbdf20f85	-0.11819366
30	0x3e0a1bb1	0.13487126
31	0x3baac07e	0.005210935
32	0xbd85253d	-0.06501243
33	0x3e0af3e4	0.135696
34	0x3c0c744a	0.008572647
35	0xbe175b85	-0.14781006
36	0xbd6d1dd7	-0.057889786
37	0x3db7f60b	0.08982476
38	0xbe0d041e	-0.13771102
39	0x3d8d220c	0.068912596
40	0x3d1f272d	0.03885572
41	0xbe16279c	-0.14663547
42	0xbb9f410a	-0.004860048
43	0xbdbd1702	-0.09232904
44	0xbcbce995	-0.0230606
45	0xbd417b1e	-0.047236554
46	0xbd017228	-0.03160301
47	0xbce3e226	-0.027817797
48	0x3ddbc40a	0.10730751
49	0xbe0c4402	-0.13697818
50	0xbd7a6264	-0.06112899
51	0x3dac5046	0.084137484
52	0x3d1c8c55	0.03821977
53	0x3cf2bdc7	0.029631509
54	0xbd741d63	-0.059598338
55	0xbae4c6e1	-0.001745429
56	0xbd804eb3	-0.06265011
57	0x3ca8f77d	0.020625824
58	0xbc69c770	-0.014268741
59	0xbdb0a992	-0.08626093
60	0x3dc55801	0.09635926
61	0x3da407e0	0.080093145
62	0xbd947e7e	-0.07250689
63	0x3e78f500	0.2431221
64	0xbe07d8d6	-0.1326631
65	0x3cf8b4af	0.030359594
66	0xbc0ad9e6	-0.008474803
67	0xbe1c4ada	-0.15262929
68	0xbcac6bef	-0.02104756
69	0x3c3159c9	0.010824629
70	0x3d882b16	0.06648843
71	0x3e40da80	0.18833351
72	0x3e0a0260	0.13477468
73	0xbde90aac	-0.113789886
74	0x3c6abfa0	0.0143279135
75	0x3de181ba	0.110110715
76	0x3e08ec43	0.13371377
77	0x3c9f2509	0.01942684
78	0xbbc912fe	-0.0061362972
79	0x3db9de04	0.09075549
80	0xbdc04ec2	-0.09390022
81	0x3c3f6341	0.011681379
82	0xbd42ea43	-0.04758669
83	0xbdca2492	-0.098702565
84	0x3d89fe0f	0.06737911
85	0xbd1079bd	-0.03527235
86	0x3e195f33	0.14977722
87	0xbdcd8d02	-0.10036661
88	0x3d17c0ff	0.03704929
89	0x3cde037e	0.027101275
90	0x3d9181e8	0.07104856
91	0x3d312aea	0.043253817
92	0xbd85cdf6	-0.065334246
93	0x3d97c594	0.07410732
94	0xbd80ac31	-0.06282843
95	0x3d345c78	0.044033498
96	0x3d9765f0	0.0739249
97	0xbdac9279	-0.08426375
98	0x3c35910b	0.011081944
99	0xbd2ca972	-0.042153783
100	0xbdaf2cd6	-0.08553474
101	0xbd697dd4	-0.057004765
102	0x3da373a7	0.07981043
103	0xbdaee042	-0.085388675
104	0xbe09777a	-0.13424483
105	0x3d45d56d	0.04829924
106	0xbcf6c150	-0.030121475
107	0xbdcff7d1	-0.10154689
108	0x3d2cde9a	0.042204477
109	0x3dfdfd79	0.12401862
110	0x3e01f9b9	0.12692918
111	0xbdd6d8aa	-0.10490544
112	0x3e03f58f	0.12886642
113	0x3c57ebf6	0.013178816
114	0x3e21d80c	0.15805072
115	0x3d9b8cdc	0.07595226
116	0xbd6bca0d	-0.057565738
117	0xbdefb165	-0.11703757
118	0xbc5e6c67	-0.01357565
119	0x3d6e0bdd	0.058116782
120	0xbd7b932c	-0.06141965
121	0xbd02ecd6	-0.031964146
122	0x3e0c0ad3	0.13676004
123	0xbd0093dc	-0.03139101
124	0x3c5171ce	0.012783481
125	0x3c5c5624	0.013448272
126	0xbdb42078	-0.087952554
127	0xbe25a43d	-0.16175933
128	0x3de92510	0.11384022
129	0x3df7e10c	0.12103471
130	0x3dfef378	0.12448782
131	0x3e273c61	0.16331626
132	0x3c4ae4b4	0.012383629
133	0x3d0e298b	0.034707587
134	0xbdad69ea	-0.08467467
135	0x3de66aa7	0.11250811
136	0xbd97c380	-0.074103355
137	0x3da626b3	0.0811285
138	0x3cda374d	0.026637698
139	0xbd14833d	-0.03625797
140	0xbdeddd08	-0.11614424
141	0x3bebcf0b	0.0071963123
142	0x3d0cb1cb	0.034349244
143	0xbcf0d834	-0.029399969
144	0xbd694c4c	-0.056957528
145	0x3c9b322b	0.01894482
146	0xbe0f3848	-0.13986313
147	0xbc5fd5ee	-0.013661845
148	0xbdc5affe	-0.096527085
149	0xbdb8179d	-0.08988879
150	0x3d165076	0.036697827
151	0xbe62da5f	-0.22153614
152	0xbda67996	-0.081286594
153	0xbe545c03	-0.20738225
154	0x3dcc5e11	0.09978879
155	0x3d149cd7	0.036282387
156	0x3db22bfc	0.086997956
157	0x3dbe6cfe	0.09298132
158	0x3db5a6e1	0.0886972
159	0x3e080fa2	0.13287213
160	0x3d96ca6c	0.07362828
161	0xbdb85b7c	-0.09001824
162	0x3e082743	0.13296227
163	0x3cb25677	0.021769745
164	0x3d203635	0.039114196
165	0x3d4632ea	0.0483884
166	0xbdc8685e	-0.097855315
167	0xbd50fb78	-0.05102107
168	0xbe1170bc	-0.14203161
169	0xbdf83076	-0.12118618
170	0x3deea1e4	0.11651972
171	0x3b98c593	0.0046622246
172	0xbdee7014	-0.11642471
173	0x3e01d1ef	0.1267774
174	0x3dca7cbe	0.09887074
175	0xbd359f4a	-0.044341363
176	0x3d82cc55	0.063866295
177	0x3cf1a627	0.029498173
178	0x3d943fe7	0.07238751
179	0xbdc21262	-0.094761625
180	0x3e3d0d50	0.1846211
181	0x3de3a0de	0.11114667
182	0xbd2f8a81	-0.042856697
183	0xbd90eb10	-0.070760846
184	0x3e44d0e3	0.19220309
185	0xbd2a6728	-0.041602284
186	0xbdb10629	-0.08643753
187	0xbd38734a	-0.045031823
188	0x3ce90668	0.028445438
189	0xbd1521dc	-0.036409244
190	0xbd87dc6f	-0.06633841
191	0xbe6d72d9	-0.23188342
192	0x3dc4e4f7	0.09613984
193	0x3d044482	0.032291897
194	0x3dbc5424	0.09195736
195	0xbdb09458	-0.08622044
196	0x3cf2d2a0	0.02964145
197	0x3e26720e	0.16254446
198	0x3da5320e	0.08066188
199	0x3d9c6cb9	0.07637925
200	0x3d92da8f	0.07170593
201	0x3cc5a6b4	0.024127342
202	0xbd27eaae	-0.040995292
203	0x3c9a8bd8	0.01886551
204	0x3de76482	0.11298467
205	0x3d95f69b	0.07322427
206	0xbd570b39	-0.052500937
207	0xbcdcd12e	-0.026955213
208	0x3dc565fd	0.09638593
209	0xbd11ea6e	-0.03562396
210	0xbda67593	-0.08127894
211	0xbdc39b6f	-0.09551131
212	0x3d960bfb	0.07326504
213	0x3cb9c53f	0.022677062
214	0xbdf36d50	-0.11886084
215	0x3c79df78	0.015251033
216	0x3def1b3f	0.11675119
217	0xbdb72c80	-0.089440346
218	0xbdc955a3	-0.09830787
219	0xbcabf385	-0.020990143
220	0x3de56594	0.11201015
221	0xbd9d8a6a	-0.07692416
222	0xbdbe96d4	-0.09306112
223	0xbc1b55d8	-0.009480916
224	0x3dab951b	0.08378049
225	0x3dc1dbfa	0.09465785
226	0x3e124d85	0.14287384
227	0x3d5f601f	0.054535028
228	0xbd2c4984	-0.042062297
229	0xbc9ca2c1	-0.019120576
230	0xbda19baf	-0.078910224
231	0xbd94e584	-0.07270339
232	0xbc263d68	-0.010146476
233	0x3d288497	0.041142073
234	0x3daca18c	0.0842925
235	0x3e08a93f	0.13345812
236	0x3d9a5cf4	0.07537261
237	0x3c096554	0.008385975
238	0xbe70225f	-0.23450612
239	0xbdc2cb30	-0.09511411
240	0xbccb1013	-0.024787938
241	0x3e362a4f	0.17789577
242	0x3cfe181b	0.031017354
243	0xbdce03ca	-0.100593165
244	0x3daa4fe1	0.08316017
245	0xbc284676	-0.010270705
246	0x3d455186	0.04817345
247	0xbdefb9d5	-0.117053665
248	0x3d86bfd9	0.06579561
249	0xbe6ade02	-0.22936252
250	0xbd4b3ba5	-0.04961743
251	0xbd4af21e	-0.049547307
252	0xbdd3ec8a	-0.103478506
253	0xbd9a6b96	-0.07540052
254	0x3e0058da	0.12533894
255	0xbe80bd09	-0.25144222

bias f4 [64]
0	0xbc209ca2	-0.009802969
1	0x3d2775c2	0.040883787
2	0xbe01f96b	-0.12692802
3	0x3bea9a14	0.007159481
4	0x3c249363	0.010044905
5	0xbde50a03	-0.1118355
6	0xbd28d618	-0.0412198
7	0xbc4d1cab	-0.012519042
8	0xbdf2521c	-0.11832067
9	0x3e1151fc	0.14191431
10	0xbe5313d0	-0.20613027
11	0x3d0b02ce	0.03393822
12	0xba658da0	-0.00087567605
13	0x3dd38f1b	0.103300296
14	0x3b654fa7	0.0034990103
15	0x3cc51de0	0.024062097
16	0xbd8a9fcb	-0.06768759
17	0x3e0fc6c6	0.1404067
18	0x3e1feae5	0.15616949
19	0xbe2a570d	-0.1663477
20	0xbca3c22b	-0.019990047
21	0xbd8eaffc	-0.0696716
22	0xbde3b1cb	-0.11117896
23	0xbda509fd	-0.08058546
24	0x39d0102c	0.000396849
25	0x3e24961c	0.16072887
26	0x3ce4398b	0.02785947
27	0xbdc3cfa4	-0.09561089
28	0xbbe21b3e	-0.00690022
29	0x3e4e8e3b	0.20171444
30	0x3cde9d07	0.027174486
31	0x3ca7814c	0.020447396
32	0x3e3c6cb8	0.18400848
33	0xbdd98028	-0.10620147
34	0x3bbcc7ef	0.0057611386
35	0xbd271886	-0.04079487
36	0xbde9a482	-0.114083305
37	0x3e177031	0.14788891
38	0xbe82581a	-0.2545784
39	0xbdbcb8ba	-0.09214921
40	0x3d86bde5	0.06579188
41	0xbe01cf25	-0.12676676
42	0xbd07d5dc	-0.033162937
43	0xbcc26a24	-0.023732252
44	0x3cc3ef72	0.023917887
45	0x3cc3b5f1	0.023890467
46	0xbde48d73	-0.11159792
47	0xbcc5aef4	-0.024131276
48	0xbd3c8085	-0.046021003
49	0xbe4573a6	-0.19282398
50	0x3daf3f62	0.08557011
51	0x3d181441	0.03712869
52	0x3e2b5842	0.16732886
53	0x3d668365	0.05627765
54	0x3e5a838f	0.21339248
55	0xbe2a82c7	-0.1665145
56	0xbe35a68c	-0.17739314
57	0xbe52dcc4	-0.20592028
58	0xbdf1d98e	-0.118090734
59	0x3ca25359	0.019815134
60	0xbd0a7fd2	-0.033813305
61	0x3e84bae3	0.25923833
62	0x3dae5f9c	0.0851433
63	0x3e5dd3cf	0.2166283
